…
vation=\"tanh\"),\n    AveragePooling2D((2,2), strides=2),\n    Conv2D(120, (5,5), activation=\"tanh\"),\n    Flatten(),\n    Dense(84, activation=\"tanh\"),\n    Dense(10, activation=\"softmax\")\n])\nmodel.summary()\n```", "```py\nModel: \"sequential\"\n________________________________________________________________________________\n Layer (type)                            Output Shape           Param\n                                                                 #\n================================================================================\n conv2d (Conv2D)                         (None, 28, 28, 6)      156\n\n average_pooling2d (AveragePooling2D)    (None, 14, 14, 6)      0\n\n conv2d_1 (Conv2D)                       (None, 10, 10, 16)     2416\n\n average_pooling2d_1 (AveragePooling2D)  (None, 5, 5, 16)       0\n\n conv2d_2 (Conv2D)                       (None, 1, 1, 120)      48120\n\n flatten (Flatten)                       (None, 120)            0\n\n dense (Dense)                           (None, 84)             10164\n\n dense_1 (Dense)                         (None, 10)             850\n\n================================================================================\nTotal params: 61706 (241.04 KB)\nTrainable params: 61706 (241.04 KB)\nNon-trainable params: 0 (0.00 Byte)\n________________________________________________________________________________\n```", "```py\nimport numpy as np\nfrom tensorflow.keras.utils import to_categorical\nfrom tensorflow.keras.callbacks import E
…
