…
optimizer = tf.keras.optimizers.Adam(lr, beta_1=0.9, beta_2=0.98, epsilon=1e-9)\nmodel.compile(loss=masked_loss, optimizer=optimizer, metrics=[masked_accuracy])\nmodel.summary()\n```", "```py\nModel: \"transformer\"\n__________________________________________________________________________________________________\n Layer (type)                   Output Shape         Param #     Connected to\n==================================================================================================\n encoder_inputs (InputLayer)    [(None, 20)]         0           []\n\n embed_enc (PositionalEmbedding  (None, 20, 128)     1280000     ['encoder_inputs[0][0]']\n )\n\n enc0 (Sequential)              (None, 20, 128)      659712      ['embed_enc[0][0]']\n\n enc1 (Sequential)              (None, 20, 128)      659712      ['enc0[0][0]']\n\n decoder_inputs (InputLayer)    [(None, 20)]         0           []\n\n enc2 (Sequential)              (None, 20, 128)      659712      ['enc1[0][0]']\n\n embed_dec (PositionalEmbedding  (None, 20, 128)     2560000     ['decoder_inputs[0][0]']\n )\n\n enc3 (Sequential)              (None, 20, 128)      659712      ['enc2[0][0]']\n\n dec0 (Functional)              (None, 20, 128)      1187456     ['embed_dec[0][0]',\n                                                                  'enc3[0][0]']\n\n dec1 (Functional)              (None, 20, 128)      1187456     ['dec0[0][0]',\n                                                                  'enc3[0][0]']\n\n dec2 (Functional)              (None, 20, 128)      1187456     ['dec1[0][0]',\n                                                                  'enc3[0][0]']\n\n dec3 (Functional)              (None, 20, 128)      1187456     ['dec2[0][0]',\n                                                                  'enc3[0][0]']\n\n linear (Dense)                 (None, 20, 20000)    2580000     ['dec3[0][0]']\n\n==================================================================================================\nTotal params: 13,808,672\nTrainable params: 13,808,672\nNon-trainable params: 0\n__________________________________________________________________________________________________\n```", "```py\nimport matplotlib.pyplot as plt\nimport tensorflow as tf\n\n# the dataset objects 
…
